…
    "        # 1 次元畳み込みと embedding では、入力のサイズが異なるので注意\n",
    "        out = self.convs(emb.transpose(1, 2)).transpose(1, 2)\n",
    "        return out"
   ]
  },
  {
   "cell_type": "code",
   "execution_count": 20,
   "id": "precise-leonard",
   "metadata": {
    "execution": {
     "iopub.execute_input": "2021-08-11T15:04:16.384649Z",
     "iopub.status.busy": "2021-08-11T15:04:16.384387Z",
     "iopub.status.idle": "2021-08-11T15:04:16.393326Z",
     "shell.execute_reply": "2021-08-11T15:04:16.393034Z"
    }
   },
   "outputs": [
    {
     "data": {
      "text/plain": [
       "ConvEncoder(\n",
       "  (embed): Embedding(40, 256, padding_idx=0)\n",
       "  (convs): Sequential(\n",
       "    (0): Conv1d(256, 256, kernel_size=(5,), stride=(1,), padding=(2,), bias=False)\n",
       "    (1): BatchNorm1d(256, eps=1e-05, momentum=0.1, affine=True, track_running_stats=True)\n",
       "    (2): ReLU()\n",
       "    (3): Dropout(p=0.5, inplace=False)\n",
       "    (4): Conv1d(256, 256, kernel_size=(5,), stride=(1,), padding=(2,), bias=False)\n",
       "    (5): BatchNorm1d(256, eps=1e-05, momentum=0.1, affine=True, track_running_stats=True)\n",
       "    (6): ReLU()\n",
       "    (7): Dropout(p=0.5, inplace=False)\n",
       "    (8): Conv1d(256, 256, kernel_size=(5,), stride=(1,), padding=(2,), bias=False)\n",
       "    (9): BatchNorm1d(256, eps=1e-05, momentum=0.1, affine=True, track_running_stats=True)\n",
       "    (10): ReLU()\n",
       "    (11): Dropout(p=0.5, inplace=False)\n",
       "  )\n",
       ")"
      ]
     },
     "execution_count": 1,
     "metadata": {},
     "output_type": "execute_result"
    }
   ],
   "source": [
    "ConvEncoder()"
   ]
  },
  {
   "cell_type": "code",
   "execution_count": 21,
   "id": "interim-helmet",
…
    "        out, _ = self.blstm(out)\n",
    "        out, _ = pad_packed_sequence(out, batch_first=True)\n",
    "        return out"
   ]
  },
  {
   "cell_type": "code",
   "execution_count": 23,
   "id": "geological-billion",
   "metadata": {
    "execution": {
     "iopub.execute_input": "2021-08-11T15:04:16.420988Z",
     "iopub.status.busy": "2021-08-11T15:04:16.420542Z",
     "iopub.status.idle": "2021-08-11T15:04:16.462455Z",
     "shell.execute_reply": "2021-08-11T15:04:16.462791Z"
    }
   },
   "outputs": [
    {
     "data": {
      "text/plain": [
       "Encoder(\n",
       "  (embed): Embedding(40, 512, padding_idx=0)\n",
       "  (convs): Sequential(\n",
       "    (0): Conv1d(512, 512, kernel_size=(5,), stride=(1,), padding=(2,), bias=False)\n",
       "    (1): BatchNorm1d(512, eps=1e-05, momentum=0.1, affine=True, track_running_stats=True)\n",
       "    (2): ReLU()\n",
       "    (3): Dropout(p=0.5, inplace=False)\n",
       "    (4): Conv1d(512, 512, kernel_size=(5,), stride=(1,), padding=(2,), bias=False)\n",
       "    (5): BatchNorm1d(512, eps=1e-05, momentum=0.1, affine=True, track_running_stats=True)\n",
       "    (6): ReLU()\n",
       "    (7): Dropout(p=0.5, inplace=False)\n",
       "    (8): Conv1d(512, 512, kernel_size=(5,), stride=(1,), padding=(2,), bias=False)\n",
       "    (9): BatchNorm1d(512, eps=1e-05, momentum=0.1, affine=True, track_running_stats=True)\n",
       "    (10): ReLU()\n",
       "    (11): Dropout(p=0.5, inplace=False)\n",
       "  )\n",
       "  (blstm): LSTM(512, 256, batch_first=True, bidirectional=True)\n",
       ")"
      ]
     },
     "execution_count": 1,
     "metadata": {},
     "output_type": "execute_result"
    }
   ],
   "source": [
    "Encoder()"
…
    "            encoder_outs * attention_weights.unsqueeze(-1), dim=1\n",
    "        )\n",
    "\n",
    "        return attention_context, attention_weights"
   ]
  },
  {
   "cell_type": "code",
   "execution_count": 29,
   "id": "virtual-walker",
   "metadata": {
    "execution": {
     "iopub.execute_input": "2021-08-11T15:04:16.548338Z",
     "iopub.status.busy": "2021-08-11T15:04:16.548006Z",
     "iopub.status.idle": "2021-08-11T15:04:16.552295Z",
     "shell.execute_reply": "2021-08-11T15:04:16.551996Z"
    }
   },
   "outputs": [
    {
     "data": {
      "text/plain": [
       "LocationSensitiveAttention(\n",
       "  (V): Linear(in_features=512, out_features=128, bias=True)\n",
       "  (W): Linear(in_features=1024, out_features=128, bias=False)\n",
       "  (U): Linear(in_features=32, out_features=128, bias=False)\n",
       "  (F): Conv1d(1, 32, kernel_size=(31,), stride=(1,), padding=(15,), bias=False)\n",
       "  (w): Linear(in_features=128, out_features=1, bias=True)\n",
       ")"
      ]
     },
     "execution_count": 1,
     "metadata": {},
     "output_type": "execute_result"
    }
   ],
   "source": [
    "LocationSensitiveAttention()"
   ]
  },
  {
   "cell_type": "code",
   "execution_count": 30,
   "id": "fourth-bulletin",
   "metadata": {
    "execution": {
     "iopub.execute_input": "2021-08-11T15:04:16.555284Z",
…
    "            outs = outs.view(outs.size(0), self.out_dim, -1)  # (B, out_dim, Lmax)\n",
    "\n",
    "        return outs, logits, att_ws"
   ]
  },
  {
   "cell_type": "code",
   "execution_count": 35,
   "id": "integrated-lesbian",
   "metadata": {
    "execution": {
     "iopub.execute_input": "2021-08-11T15:04:16.698498Z",
     "iopub.status.busy": "2021-08-11T15:04:16.698166Z",
     "iopub.status.idle": "2021-08-11T15:04:16.805670Z",
     "shell.execute_reply": "2021-08-11T15:04:16.805378Z"
    }
   },
   "outputs": [
    {
     "data": {
      "text/plain": [
       "Decoder(\n",
       "  (attention): LocationSensitiveAttention(\n",
       "    (V): Linear(in_features=512, out_features=128, bias=True)\n",
       "    (W): Linear(in_features=1024, out_features=128, bias=False)\n",
       "    (U): Linear(in_features=32, out_features=128, bias=False)\n",
       "    (F): Conv1d(1, 32, kernel_size=(31,), stride=(1,), padding=(15,), bias=False)\n",
       "    (w): Linear(in_features=128, out_features=1, bias=True)\n",
       "  )\n",
       "  (prenet): Prenet(\n",
       "    (prenet): Sequential(\n",
       "      (0): Linear(in_features=80, out_features=256, bias=True)\n",
       "      (1): ReLU()\n",
       "      (2): Linear(in_features=256, out_features=256, bias=True)\n",
       "      (3): ReLU()\n",
       "    )\n",
       "  )\n",
       "  (lstm): ModuleList(\n",
       "    (0): ZoneOutCell(\n",
       "      (cell): LSTMCell(768, 1024)\n",
       "    )\n",
       "    (1): ZoneOutCell(\n",
       "      (cell): LSTMCell(1024, 1024)\n",
       "    )\n",
       "  )\n",
       "  (feat_out): Linear(in_features=1536, out_features=80, bias=False)\n",
       "  (prob_out): Linear(in_features=1536, out_features=1, bias=True)\n",
       ")"
      ]
     },
     "execution_count": 1,
     "metadata": {},
     "output_type": "execute_result"
    }
   ],
   "source": [
    "Decoder()"
   ]
  },
  {
   "cell_type": "code",
   "execution_count": 36,
   "id": "pharmaceutical-reasoning",
   "metadata": {
    "execution": {
     "iopub.execute_input": "2021-08-11T15:04:16.808214Z",
     "iopub.status.busy": "2021-08-11T15:04:16.807925Z",
…
    "        self.postnet = nn.Sequential(*postnet)\n",
    "\n",
    "    def forward(self, xs):\n",
    "        return self.postnet(xs)"
   ]
  },
  {
   "cell_type": "code",
   "execution_count": 39,
   "id": "sunrise-thumb",
   "metadata": {
    "execution": {
     "iopub.execute_input": "2021-08-11T15:04:17.518851Z",
     "iopub.status.busy": "2021-08-11T15:04:17.518465Z",
     "iopub.status.idle": "2021-08-11T15:04:17.551990Z",
     "shell.execute_reply": "2021-08-11T15:04:17.551609Z"
    }
   },
   "outputs": [
    {
     "data": {
      "text/plain": [
       "Postnet(\n",
       "  (postnet): Sequential(\n",
       "    (0): Conv1d(80, 512, kernel_size=(5,), stride=(1,), padding=(2,), bias=False)\n",
       "    (1): BatchNorm1d(512, eps=1e-05, momentum=0.1, affine=True, track_running_stats=True)\n",
       "    (2): Tanh()\n",
       "    (3): Dropout(p=0.5, inplace=False)\n",
       "    (4): Conv1d(512, 512, kernel_size=(5,), stride=(1,), padding=(2,), bias=False)\n",
       "    (5): BatchNorm1d(512, eps=1e-05, momentum=0.1, affine=True, track_running_stats=True)\n",
       "    (6): Tanh()\n",
       "    (7): Dropout(p=0.5, inplace=False)\n",
       "    (8): Conv1d(512, 512, kernel_size=(5,), stride=(1,), padding=(2,), bias=False)\n",
       "    (9): BatchNorm1d(512, eps=1e-05, momentum=0.1, affine=True, track_running_stats=True)\n",
       "    (10): Tanh()\n",
       "    (11): Dropout(p=0.5, inplace=False)\n",
       "    (12): Conv1d(512, 512, kernel_size=(5,), stride=(1,), padding=(2,), bias=False)\n",
       "    (13): BatchNorm1d(512, eps=1e-05, momentum=0.1, affine=True, track_running_stats=True)\n",
       "    (14): Tanh()\n",
       "    (15): Dropout(p=0.5, inplace=False)\n",
       "    (16): Conv1d(512, 80, kernel_size=(5,), stride=(1,), padding=(2,), bias=False)\n",
       "    (17): BatchNorm1d(80, eps=1e-05, momentum=0.1, affine=True, track_running_stats=True)\n",
       "    (18): Dropout(p=0.5, inplace=False)\n",
       "  )\n",
       ")"
      ]
     },
     "execution_count": 1,
     "metadata": {},
     "output_type": "execute_result"
    }
   ],
   "source": [
    "Postnet()"
   ]
  },
  {
   "cell_type": "code",
   "execution_count": 40,
   "id": "mexican-watson",
   "metadata": {
…
    "print(f\"stop token (logits) のサイズ: {tuple(logits.shape)}\")\n",
    "print(f\"アテンション重みのサイズ: {tuple(att_ws.shape)}\")"
   ]
  },
  {
   "cell_type": "code",
   "execution_count": 43,
   "id": "resistant-nevada",
   "metadata": {
    "execution": {
     "iopub.execute_input": "2021-08-11T15:04:18.438879Z",
     "iopub.status.busy": "2021-08-11T15:04:18.438486Z",
     "iopub.status.idle": "2021-08-11T15:04:18.440682Z",
     "shell.execute_reply": "2021-08-11T15:04:18.440319Z"
    }
   },
   "outputs": [
    {
     "data": {
      "text/plain": [
       "Tacotron2(\n",
       "  (encoder): Encoder(\n",
       "    (embed): Embedding(40, 512, padding_idx=0)\n",
       "    (convs): Sequential(\n",
       "      (0): Conv1d(512, 512, kernel_size=(5,), stride=(1,), padding=(2,), bias=False)\n",
       "      (1): BatchNorm1d(512, eps=1e-05, momentum=0.1, affine=True, track_running_stats=True)\n",
       "      (2): ReLU()\n",
       "      (3): Dropout(p=0.5, inplace=False)\n",
       "      (4): Conv1d(512, 512, kernel_size=(5,), stride=(1,), padding=(2,), bias=False)\n",
       "      (5): BatchNorm1d(512, eps=1e-05, momentum=0.1, affine=True, track_running_stats=True)\n",
       "      (6): ReLU()\n",
       "      (7): Dropout(p=0.5, inplace=False)\n",
       "      (8): Conv1d(512, 512, kernel_size=(5,), stride=(1,), padding=(2,), bias=False)\n",
       "      (9): BatchNorm1d(512, eps=1e-05, momentum=0.1, affine=True, track_running_stats=True)\n",
       "      (10): ReLU()\n",
       "      (11): Dropout(p=0.5, inplace=False)\n",
       "    )\n",
       "    (blstm): LSTM(512, 256, batch_first=True, bidirectional=True)\n",
       "  )\n",
       "  (decoder): Decoder(\n",
       "    (attention): LocationSensitiveAttention(\n",
       "      (V): Linear(in_features=512, out_features=128, bias=True)\n",
       "      (W): Linear(in_features=1024, out_features=128, bias=False)\n",
       "      (U): Linear(in_features=32, out_features=128, bias=False)\n",
       "      (F): Conv1d(1, 32, kernel_size=(31,), stride=(1,), padding=(15,), bias=False)\n",
       "      (w): Linear(in_features=128, out_features=1, bias=True)\n",
       "    )\n",
       "    (prenet): Prenet(\n",
       "      (prenet): Sequential(\n",
       "        (0): Linear(in_features=80, out_features=256, bias=True)\n",
       "        (1): ReLU()\n",
       "        (2): Linear(in_features=256, out_features=256, bias=True)\n",
       "        (3): ReLU()\n",
       "      )\n",
       "    )\n",
       "    (lstm): ModuleList(\n",
       "      (0): ZoneOutCell(\n",
       "        (cell): LSTMCell(768, 1024)\n",
       "      )\n",
       "      (1): ZoneOutCell(\n",
       "        (cell): LSTMCell(1024, 1024)\n",
       "      )\n",
       "    )\n",
       "    (feat_out): Linear(in_features=1536, out_features=80, bias=False)\n",
       "    (prob_out): Linear(in_features=1536, out_features=1, bias=True)\n",
       "  )\n",
       "  (postnet): Postnet(\n",
       "    (postnet): Sequential(\n",
       "      (0): Conv1d(80, 512, kernel_size=(5,), stride=(1,), padding=(2,), bias=False)\n",
       "      (1): BatchNorm1d(512, eps=1e-05, momentum=0.1, affine=True, track_running_stats=True)\n",
       "      (2): Tanh()\n",
       "      (3): Dropout(p=0.5, inplace=False)\n",
       "      (4): Conv1d(512, 512, kernel_size=(5,), stride=(1,), padding=(2,), bias=False)\n",
       "      (5): BatchNorm1d(512, eps=1e-05, momentum=0.1, affine=True, track_running_stats=True)\n",
       "      (6): Tanh()\n",
       "      (7): Dropout(p=0.5, inplace=False)\n",
       "      (8): Conv1d(512, 512, kernel_size=(5,), stride=(1,), padding=(2,), bias=False)\n",
       "      (9): BatchNorm1d(512, eps=1e-05, momentum=0.1, affine=True, track_running_stats=True)\n",
       "      (10): Tanh()\n",
       "      (11): Dropout(p=0.5, inplace=False)\n",
       "      (12): Conv1d(512, 512, kernel_size=(5,), stride=(1,), padding=(2,), bias=False)\n",
       "      (13): BatchNorm1d(512, eps=1e-05, momentum=0.1, affine=True, track_running_stats=True)\n",
       "      (14): Tanh()\n",
       "      (15): Dropout(p=0.5, inplace=False)\n",
       "      (16): Conv1d(512, 80, kernel_size=(5,), stride=(1,), padding=(2,), bias=False)\n",
       "      (17): BatchNorm1d(80, eps=1e-05, momentum=0.1, affine=True, track_running_stats=True)\n",
       "      (18): Dropout(p=0.5, inplace=False)\n",
       "    )\n",
       "  )\n",
       ")"
      ]
     },
     "execution_count": 1,
     "metadata": {},
     "output_type": "execute_result"
    }
   ],
   "source": [
    "model"
   ]
  },
  {
   "cell_type": "markdown",
   "id": "affecting-extraction",
   "metadata": {},
…
